checkpoint.pth (torch_old, 28391 bytes, 6 tensors)

fc1.weight f4 [64, 37]
0	0x3d33611d	0.043793786
1	0x39602216	0.00021375003
2	0xbd5446dd	-0.051825393
3	0xbe1f7550	-0.15572095
4	0xbe061e06	-0.1309739
5	0xbda9c4eb	-0.08289512
6	0xbd1e4123	-0.038636338
7	0x3e688e9f	0.22710656
8	0x3e3e9f3e	0.18615434
9	0x3db44494	0.08802143
10	0x3e6737f8	0.22579944
11	0xbe9dd890	-0.30829287
12	0xbd9fa68d	-0.07795439
13	0xbf04540d	-0.5169075
14	0xbf3179b2	-0.6932632
15	0x3e78b08e	0.242861
16	0xbe653f3c	-0.22387403
17	0xbdec1fd9	-0.11529512
18	0xbc12a0ef	-0.008949502
19	0xbebfd1ff	-0.37464902
20	0x3c83a897	0.0160716
21	0x3db3addc	0.087733954
22	0x3da2fd87	0.07958513
23	0x3e4b2110	0.19836831
24	0x3cd850c0	0.026405692
25	0xbd57fcf8	-0.052731484
26	0x3da263e9	0.079292126
27	0xbd901dd2	-0.07036938
28	0x3d9d3a38	0.0767712
29	0xbd83938e	-0.06424628
30	0x3cb2e70f	0.021838693
31	0xbd85084e	-0.064957246
32	0x3d957847	0.07298332
33	0xbdf1c213	-0.11804595
34	0xbe22c6d1	-0.15896155
35	0xbd91a32e	-0.07111202
36	0x3bd99a11	0.0066406806
37	0x3e2762b9	0.16346253
38	0x3e09b029	0.13446106
39	0x3cd37a9e	0.025815304
40	0x3e090703	0.13381581
41	0xbe87b867	-0.26507875
42	0x3d8bdf4e	0.06829701
43	0xbdd18296	-0.102299854
44	0x3ca690bc	0.020332687
45	0xbe5ac07a	-0.21362486
46	0xbef0b0db	-0.4700993
47	0x3ca12843	0.019672519
48	0xbd06217d	-0.03274678
49	0x3dc9f3a2	0.098609224
50	0x3e575b3d	0.21030898
51	0x3e5cd613	0.21566038
52	0x3e2bc09a	0.1677269
53	0xbd28bfa4	-0.041198388
54	0x3d97b8cb	0.07408293
55	0x3d82aa07	0.063800864
56	0xbea09fa3	-0.31371793
57	0xbd9e16cf	-0.07719194
58	0xbd2f255f	-0.04276025
59	0xbd9afdba	-0.07567926
60	0x3cccfa61	0.025021734
61	0x3e311460	0.17292929
62	0x3aaa31e3	0.0012984838
63	0x3d969989	0.07353503
64	0xbcf57efb	-0.029967776
65	0x3ce9b2f6	0.028527718
66	0xbdcfcad1	-0.10146106
67	0x3d27745b	0.04088245
68	0x3e642808	0.22280896
69	0x3da81945	0.08207945
70	0x3ddaa1b4	0.10675374
71	0x3e37edc5	0.17961796
72	0x3c30a347	0.010781116
73	0xbc750f3a	-0.014957244
74	0xbdf9f131	-0.12204207
75	0xbd1f5c9b	-0.038906675
76	0x3eac242d	0.3362135
77	0xbe510ad2	-0.20414284
78	0xbbab9311	-0.0052360375
79	0xbece2c1f	-0.40268037
80	0xbe7b3b33	-0.24534301
81	0x3e5b1f18	0.2139858
82	0x3e6e6b38	0.23283088
83	0xbe97769a	-0.29582673
84	0xbd04cae1	-0.032420043
85	0xbddbd94e	-0.10734807
86	0x3d45a6e7	0.048254874
87	0xbd15a77e	-0.036536686
88	0xbca9432a	-0.02066191
89	0xbef1884f	-0.47174308
90	0x3e434dee	0.19072697
91	0x3d296b38	0.041362017
92	0x3e88fb91	0.2675443
93	0x3d737884	0.059441105
94	0xbe95773b	-0.29192528
95	0x3d4ef51c	0.050526723
96	0x3de360b0	0.11102426
97	0xbe1b8e3b	-0.15190975
98	0xbdfbd111	-0.122957356
99	0xbe721330	-0.23640132
100	0x3dc5ee80	0.09664631
101	0x3e1642a2	0.14673856
102	0xbd5c7883	-0.053825866
103	0xbdf95207	-0.121738486
104	0xbdfa455c	-0.122202605
105	0xb858b0eb	-5.166318e-05
106	0xbdf254a4	-0.1183255
107	0xbe7bdaba	-0.24595156
108	0xbd909cac	-0.07061133
109	0x3dbb0996	0.09132688
110	0xbd85bfd2	-0.065307274
111	0xbe780f5e	-0.24224612
112	0xbe7e755f	-0.24849461
113	0x3e8d900b	0.2764896
114	0xbe5b5ea4	-0.21422821
115	0xbfb5d307	-1.4205025
116	0xbe9ee514	-0.31034148
117	0xbd748041	-0.059692625
118	0x3e52a41f	0.2057042
119	0xbe81724e	-0.2528252
120	0xbe078db9	-0.13237657
121	0x3e004c0b	0.12529008
122	0xbe34dac7	-0.17661582
123	0xbdb5e447	-0.08881431
124	0xbe214696	-0.15749583
125	0xbe6741ec	-0.22583741
126	0xbe6cb9d5	-0.23117764
127	0xbf0bb4d3	-0.5457279
128	0x3e1eaf59	0.15496577
129	0xbec0c6a7	-0.3765156
130	0xbeca4738	-0.3950746
131	0x3e14b83e	0.14523408
132	0xbe87c55a	-0.26517755
133	0x38705df8	5.7307974e-05
134	0xbecc1b6c	-0.3986467
135	0x3d88a7e3	0.06672647
136	0xbe1934a2	-0.14961484
137	0xbea6692f	-0.32502124
138	0x3e407b84	0.18797117
139	0xbd98b0b9	-0.07455582
140	0xbdb741bf	-0.08948087
141	0x3db45178	0.088046014
142	0x3d5c54f4	0.053791955
143	0x3d8cf512	0.06882681
144	0xbead8e1a	-0.33897477
145	0xbe888bdc	-0.26669204
146	0x3e58068d	0.21096249
147	0x3c94c34c	0.018159531
148	0xbddef167	-0.108858876
149	0xbdab4766	-0.083632275
150	0xbe0a56ca	-0.1350967
151	0xbe69f3ac	-0.2284686
152	0x3dcae149	0.09906251
153	0xbe908ba3	-0.28231534
154	0x3e3015ea	0.1719586
155	0x3e9c56ab	0.30534872
156	0xbea16dff	-0.31529233
157	0xbefb1100	-0.49036407
158	0xbe04590e	-0.12924597
159	0x3df5eccd	0.12008057
160	0x3d8d98c6	0.06913905
161	0xbe4a7620	-0.19771624
162	0xbeacbddc	-0.337386
163	0xbe11c564	-0.14235455
164	0xbb90da42	-0.0044205496
165	0x3b81eb58	0.0039648227
166	0x3d7eea24	0.062235013
167	0x3e08de25	0.13365991
168	0xbee188f5	-0.44049802
169	0x3e4a4443	0.19752602
170	0x3e7364f5	0.23768981
171	0xbe9a6a72	-0.30159336
172	0xbef4dce1	-0.47824767
173	0xbde29793	-0.11064067
174	0x3e1d3723	0.15353064
175	0x3dde23d8	0.108466804
176	0x3cb4b3a9	0.022058325
177	0xbe4ce228	-0.20008147
178	0xbe3586dc	-0.17727226
179	0x3e2a5a2d	0.16635962
180	0x3e0d1ec4	0.13781267
181	0xbe34c40d	-0.17652912
182	0xbe906934	-0.28205264
183	0xbbea95a0	-0.00715895
184	0xbc4684cf	-0.012116625
185	0x3cac5206	0.021035206
186	0xbc540eff	-0.0129430285
187	0xbcf29017	-0.029609723
188	0x3d1aba57	0.037775364
189	0x3e05e79d	0.13076635
190	0x3e84af32	0.25914913
191	0x3dd95050	0.106110215
192	0xbe2c799f	-0.1684327
193	0xbe9fcb91	-0.31209996
194	0xbff62570	-1.9230175
195	0xbd91eafc	-0.07124898
196	0xbcf27423	-0.029596394
197	0x3cf60247	0.030030383
198	0xbd19c28d	-0.037539054
199	0x3d5ba900	0.053627968
200	0xbce7d5c1	-0.028300168
201	0x3daf7210	0.085666776
202	0x3d054ca0	0.03254378
203	0xbc1eb309	-0.00968624
204	0x3d9356ff	0.071943276
205	0x3d8dd557	0.06925457
206	0x3df897a9	0.12138302
207	0x3d4cdff8	0.05001828
208	0x3e6ff385	0.23432739
209	0x3e2a86d2	0.16652992
210	0xbd0adec7	-0.033903863
211	0xbc9ba0d9	-0.018997597
212	0x3df88289	0.121342726
213	0xba93a48d	-0.001126425
214	0x3e90dceb	0.28293547
215	0xb98c9ca5	-0.0002681959
216	0x3b069a35	0.0020538692
217	0x38ab446f	8.166662e-05
218	0x3d92f6eb	0.07176002
219	0xbd66ee02	-0.056379326
220	0xbd289849	-0.041160855
221	0x3c1ced95	0.009578128
222	0x3e51330a	0.20429626
223	0xbd0d03dc	-0.03442751
224	0xbe9d128f	-0.30678222
225	0xbe78308a	-0.24237266
226	0xbf430e8a	-0.7619406
227	0xbd7a3029	-0.061081085
228	0xbd348354	-0.044070557
229	0xbe4207c7	-0.1894828
230	0xbd397ed3	-0.045286965
231	0x3d88ccb8	0.06679672
232	0x3e68d38b	0.22736947
233	0xbe07a273	-0.13245563
234	0xbe4f4b6a	-0.20243612
235	0x3b7fb563	0.0039018027
236	0x3d8df597	0.06931608
237	0xbf1c8c5c	-0.6115167
238	0x3c18aefa	0.009319061
239	0xbdaedb35	-0.08537904
240	0x3e5b591a	0.21420708
241	0x3e0f7fed	0.14013644
242	0xbe83a6d5	-0.2571322
243	0x3c61c83d	0.013780651
244	0x3d9689d4	0.073505074
245	0xbe4ed8c0	-0.20199871
246	0x3e98a1ee	0.29811043
247	0xbe1e8733	-0.15481262
248	0x3b3fc5d5	0.0029262204
249	0xbdef3d5e	-0.11681627
250	0xbe0edbb3	-0.13950996
251	0x3ddcf141	0.10788203
252	0xbda09a49	-0.078419276
253	0x3cb2365c	0.021754436
254	0x3d94a2da	0.07257624
255	0xbe291475	-0.1651171

fc1.bias f4 [64]
0	0x3e0cdd8a	0.13756385
1	0x3cc9e9c1	0.024647595
2	0xbe62add9	-0.2213663
3	0xbd7ec987	-0.06220391
4	0x3e56fcbe	0.20994851
5	0xbbc9e836	-0.006161715
6	0xbdc8db87	-0.098074965
7	0x3dcf55b8	0.101237714
8	0x3d5de99c	0.054177865
9	0xbe45843a	-0.19288722
10	0x3da43b37	0.08019107
11	0x3e375485	0.17903335
12	0x3d84161c	0.064495295
13	0x3dd4d20d	0.103916265
14	0xbdf96a32	-0.12178458
15	0xbda866d4	-0.08222738
16	0x3d12560e	0.0357266
17	0x3d6163d0	0.05502683
18	0x3bff7d1d	0.007796897
19	0xbe805673	-0.25065956
20	0xbd2ceec6	-0.0422199
21	0xbc375c58	-0.01119145
22	0x3da235ec	0.07920441
23	0xbe0b7006	-0.13616952
24	0xbe1e9c9c	-0.15489429
25	0x3e4fa3c2	0.20277312
26	0xbd5b5cb7	-0.053555217
27	0xbe5da7bc	-0.21646017
28	0x3e5ac42d	0.21363898
29	0xbb318983	-0.002709002
30	0xbd698baf	-0.05701798
31	0xbe25de0f	-0.1619799
32	0x3e24967a	0.16073027
33	0x3dad96a7	0.08476
34	0xbe1e6d4f	-0.15471385
35	0x3ccae73b	0.024768462
36	0xbd56a060	-0.05239904
37	0x3c62aefd	0.013835666
38	0x3d491b04	0.04909803
39	0xbe0c5c60	-0.13707113
40	0xbe11ff12	-0.14257458
41	0xbd25882e	-0.040413074
42	0xbdf5260a	-0.11970146
43	0x3e35c8cb	0.17752378
44	0xbc9a2e2d	-0.018820846
45	0xbe487f8b	-0.19579904
46	0x39c5e514	0.00037745445
47	0xbd01a2ff	-0.031649586
48	0xbe477367	-0.19477616
49	0x3e203816	0.15646395
50	0xbe2154cc	-0.15755004
51	0x3d94635e	0.07245515
52	0xbd9ab39e	-0.075537905
53	0xbdaff4b3	-0.085915945
54	0xbe54ca61	-0.20780326
55	0xbdb61e31	-0.08892477
56	0x3e0715c9	0.13191904
57	0xbe1da6fe	-0.15395734
58	0xbe2f1e63	-0.17101435
59	0xbe30fb5d	-0.17283387
60	0xbd05887b	-0.03260086
61	0xbb685aa3	-0.0035454414
62	0x3c901c6e	0.017591681
63	0x3d46e627	0.048559334

fc2.weight f4 [64, 64]
0	0x3d40d881	0.047081474
1	0xbcd2f8cc	-0.025753401
2	0xbd0a4835	-0.03376027
3	0x3e9f0c7b	0.3106421
4	0xbd0fef82	-0.03514052
5	0xbe5626d3	-0.20913248
6	0x3daf780f	0.08567821
7	0xbd01acc6	-0.03165891
8	0x3bc19e43	0.005908759
9	0x3d547e9e	0.051878564
10	0x3d96efc4	0.073699504
11	0xbe976afd	-0.29573813
12	0xbe81e785	-0.25371948
13	0xbd628b9e	-0.05530893
14	0xbf12d9d5	-0.57363635
15	0xbe042ba6	-0.12907276
16	0xbda323a8	-0.07965785
17	0xbc364383	-0.0111244945
18	0x3e540aec	0.20707291
19	0x3dc0e38c	0.09418401
20	0x3e9da3bf	0.3078899
21	0xbe48baf4	-0.19602567
22	0x3e0d0709	0.13772215
23	0xbf248ea2	-0.6428014
24	0xbdb77e26	-0.08959608
25	0x3dc16c25	0.09444455
26	0xbe398d8e	-0.18120405
27	0xbf1595ed	-0.58431894
28	0xbe80288a	-0.2503093
29	0xbec6db08	-0.38838983
30	0xbd2883ab	-0.041141193
31	0xbe27c3b4	-0.16383249
32	0x3e32f3e2	0.17475846
33	0x3ca19f35	0.019729236
34	0xbda2efaa	-0.079558685
35	0x3e10e103	0.14148335
36	0xbe513b51	-0.20432784
37	0xbda0daf2	-0.078542605
38	0xbe92d38c	-0.28677022
39	0x3cb07fa1	0.021545233
40	0xbea63a43	-0.32466325
41	0xbf0e1107	-0.5549473
42	0x3e1a9409	0.15095533
43	0xbeb6d349	-0.35708073
44	0x3e4d4312	0.20045117
45	0x3d9482ad	0.07251487
46	0xbf128802	-0.5723878
47	0xbe39b077	-0.18133722
48	0xbe14d65b	-0.14534895
49	0xbe6cb9d6	-0.23117766
50	0xbe37a8d3	-0.17935495
51	0xbe685e1e	-0.22692153
52	0xbe493370	-0.19648528
53	0xbe14225e	-0.14466235
54	0xbd93465c	-0.07191154
55	0xbdcc9bf9	-0.09990687
56	0x3d0622d9	0.032748077
57	0xbca0df45	-0.019637713
58	0xbee0e753	-0.43926486
59	0x3db2e6c0	0.08735418
60	0x3d04d52c	0.03242986
61	0xbd41cd18	-0.047314733
62	0x3e3d2246	0.18470106
63	0x3ec8b445	0.39200035
64	0xbb6f2fe6	-0.0036497056
65	0x3cf532dc	0.029931478
66	0xbde0182e	-0.10942112
67	0x3ddd6784	0.1081076
68	0xbefc09a4	-0.49226105
69	0x3e5012de	0.20319697
70	0xbe8bc63e	-0.27299684
71	0x3e1dc8ed	0.15408678
72	0x3e3b7f05	0.18310173
73	0x3d5e8efa	0.05433557
74	0x3bb25ccb	0.0054431907
75	0x3ec9e617	0.39433357
76	0xbe2a742a	-0.16645876
77	0x3deaeacc	0.11470565
78	0xbc71ffaa	-0.014770428
79	0xbe46808c	-0.19384974
80	0x3db79e18	0.08965701
81	0xbe13db56	-0.14439139
82	0xbe4f6f1c	-0.20257229
83	0x3d2dd4c9	0.042439256
84	0x3d85c3e9	0.065315075
85	0xbdaaa523	-0.083322786
86	0x3d738a60	0.059458137
87	0x3d71af22	0.05900491
88	0x3daafe81	0.08349324
89	0x3e5475e9	0.20748104
90	0x3a320b8b	0.0006791881
91	0xbd980546	-0.07422881
92	0x3e976cdf	0.2957525
93	0xbb870a42	-0.004121096
94	0xbd927e8d	-0.07153044
95	0x3d9a6f30	0.075407386
96	0xbe49946b	-0.19685523
97	0x3e1edc6a	0.15513769
98	0xbddde05a	-0.10833807
99	0xbc9a1872	-0.018810485
100	0xbd927f4c	-0.07153186
101	0x3cbabfe7	0.022796584
102	0x3e35b1ff	0.17743681
103	0xbe41036e	-0.18848965
104	0x3dd60ff2	0.1045226
105	0xbe5db76f	-0.21652006
106	0x3e1795cf	0.14803241
107	0xbe44df1a	-0.19225731
108	0xbe1da0be	-0.1539335
109	0xbaf363d5	-0.0018569181
110	0xbce35dc7	-0.027754677
111	0xbe277c51	-0.16356017
112	0x3bfc6ae9	0.0077031744
113	0xbe93250c	-0.28739202
114	0x3ce18729	0.02753027
115	0x3df687b4	0.12037602
116	0xbdf2cb0e	-0.11855136
117	0x3e18d502	0.14925006
118	0xbad6d645	-0.0016390762
119	0x3a317e74	0.0006770857
120	0xbe51138c	-0.20417613
121	0xbc03b634	-0.008039046
122	0x3d546a6d	0.051859308
123	0x3d26772d	0.040641
124	0xbe55728c	-0.20844477
125	0xbd90a709	-0.070631094
126	0xbe58dacb	-0.21177213
127	0xbecf420b	-0.40480074
128	0x3e2d02d2	0.16895607
129	0xbe90d9f6	-0.2829129
130	0x3da0687e	0.0783243
131	0x3e52c37a	0.20582381
132	0xbdfbaeaa	-0.12289174
133	0xbe06f75d	-0.13180299
134	0x3bee6df5	0.0072762915
135	0xbcf7c87f	-0.030246971
136	0xbf3ba125	-0.7329276
137	0xbe1a28a8	-0.15054572
138	0x3f2ce649	0.6753889
139	0xbedcd1e5	-0.43128887
140	0x3d9f2e6f	0.077725284
141	0x3e482c37	0.19548117
142	0x3d8b3938	0.06798023
143	0xbd324dd9	-0.043531273
144	0xbe331d7b	-0.17491715
145	0x3e2752b7	0.16340147
146	0xbb4ad7a0	-0.0030951276
147	0x3c048b06	0.008089786
148	0xbe4e6494	-0.20155555
149	0x3dabd398	0.08389968
150	0xbe3181fc	-0.17334741
151	0xbcd8c0cf	-0.026459126
152	0xbefd0d41	-0.49424174
153	0xbe25ec9d	-0.16203542
154	0x3e82d92c	0.25556314
155	0xbe5354cd	-0.20637818
156	0xbe3ebcdf	-0.18626736
157	0x3e78bf6d	0.24291773
158	0x3f2c198c	0.6722648
159	0x3de3af9c	0.11117479
160	0xbe01555f	-0.12630223
161	0xbbe62eab	-0.007024606
162	0xbd4b54d2	-0.049641438
163	0x3e08c61b	0.13356821
164	0x3e2e5a37	0.17026602
165	0xbddb0939	-0.106951185
166	0xbda65383	-0.08121397
167	0x3cfc9c1a	0.030836154
168	0x3e100ef2	0.14068201
169	0x3e13074a	0.1435825
170	0xbe945de3	-0.2897788
171	0xbe0d4f48	-0.13799775
172	0xbd431293	-0.047625136
173	0x3e2d327c	0.1691379
174	0xbc375a91	-0.011191026
175	0xbee448de	-0.44586843
176	0xbe61520f	-0.22003959
177	0xbe357664	-0.17720944
178	0xbb954c55	-0.0045562186
179	0x3d487d18	0.048947424
180	0xbe5e6ef6	-0.21722016
181	0x3e759382	0.23982051
182	0xbf0f35ef	-0.5594167
183	0x3d352873	0.04422803
184	0x3d079a85	0.033106346
185	0xbdb54c2f	-0.088524215
186	0x3e5ac9fc	0.21366113
187	0x3e10a6b8	0.14126098
188	0xbe68ee8d	-0.2274725
189	0x3ce34946	0.0277449
190	0x3e42f8a2	0.19040158
191	0xbeaf1133	-0.3419281
192	0xbe7d91b5	-0.24762614
193	0xbe1dae07	-0.15398417
194	0xbbe58e2a	-0.0070054727
195	0xbd12e353	-0.035861325
196	0x3db93783	0.09043791
197	0xbde8ebcf	-0.11373102
198	0xbe3862b0	-0.18006396
199	0xbe2e1289	-0.16999258
200	0x3c472e3a	0.012157017
201	0x3ddb4fcc	0.107085794
202	0xbd12021e	-0.03564655
203	0x3ca00b11	0.019536527
204	0x3d99a2d4	0.0750176
205	0x3e3c9bee	0.18418857
206	0x39695626	0.00022252704
207	0xbe971962	-0.29511553
208	0xbcf400bd	-0.029785508
209	0x3dc593d5	0.09647337
210	0xbd815734	-0.06315461
211	0xbe337dc2	-0.17528442
212	0x3d8477af	0.0646814
213	0x3e376603	0.17910008
214	0xbcce2cef	-0.02516791
215	0x3d9649a2	0.07338263
216	0xbe0adaa0	-0.13559961
217	0x3e77da72	0.24204424
218	0x3d121002	0.035659797
219	0x3c43be51	0.01194723
220	0xbd0e8dfe	-0.034803383
221	0x3e267319	0.16254844
222	0xbd8abc23	-0.067741655
223	0xbd59afa6	-0.053146027
224	0xbe559263	-0.20856623
225	0xbe0cbdc0	-0.13744259
226	0x3cbdd993	0.023175037
227	0x3e89fddd	0.26951495
228	0xbeaaaccc	-0.3333496
229	0x3e746ade	0.23868892
230	0xbcde3e80	-0.027129412
231	0x3d10188f	0.03517967
232	0xbd06eafb	-0.03293894
233	0x3e454fcf	0.19268726
234	0x3dc29ddc	0.095027655
235	0xbec9ea37	-0.39436504
236	0xbe904f82	-0.2818566
237	0x3ddd09fc	0.1079292
238	0xbe4f10d3	-0.20221262
239	0xbe43cdf8	-0.1912154
240	0xbe52c7d7	-0.20584045
241	0xbc91a839	-0.01778041
242	0xbed2711e	-0.41101927
243	0xbd6c74aa	-0.057728447
244	0xbd84c0ac	-0.06482062
245	0x3d624de5	0.055250067
246	0xbd6a68f1	-0.057228986
247	0x3dcea412	0.10089888
248	0xbe0fba74	-0.1403597
249	0xbeacb14c	-0.33729017
250	0xbe97b57e	-0.29630655
251	0x3c641e9d	0.013923314
252	0xbe367a5f	-0.17820118
253	0x3e98d0c6	0.29846781
254	0xbdbce8ee	-0.09224115
255	0xbd8a04e7	-0.06739216

fc2.bias f4 [64]
0	0xbd326f64	-0.04356326
1	0x3c8848a1	0.016636195
2	0x3e000ddc	0.12505287
3	0x3d52756f	0.051381525
4	0x3ddcffea	0.10790999
5	0xbe3cb4b4	-0.18428308
6	0xbe0916ce	-0.13387606
7	0x3e05be55	0.13060887
8	0x3e652381	0.22376825
9	0x3edd41a3	0.4321414
10	0xbe029ec5	-0.12755878
11	0x3e00b6fb	0.12569802
12	0x3e621804	0.22079474
13	0x3d2f8310	0.0428496
14	0xbdb75413	-0.08951583
15	0xbc2323d2	-0.009957271
16	0x3e2ec813	0.1706851
17	0x3cddaff9	0.02706145
18	0xbdd0df02	-0.10198785
19	0x3e0001b7	0.12500654
20	0x3dc71959	0.097216316
21	0x3ef1be2b	0.472154
22	0xbe18d137	-0.14923559
23	0xbc50ed73	-0.012751925
24	0xbcf3d3ae	-0.029764023
25	0xbe353258	-0.17694986
26	0x3d6d57a3	0.057944905
27	0xbddbb444	-0.10727742
28	0xbdda182b	-0.10649141
29	0x3e506fd2	0.20355156
30	0xbd5dce38	-0.054151744
31	0x3c5125aa	0.0127653275
32	0xbdbda7ac	-0.092604965
33	0x3ddd1f0b	0.107969366
34	0x3d1cd3a3	0.03828777
35	0xbca79cba	-0.020460475
36	0xbd808512	-0.06275381
37	0xbe1afa22	-0.1513448
38	0x3e42d0ef	0.19025014
39	0xbc8c3a2e	-0.017117586
40	0xbe00fad2	-0.1259568
41	0x3ef520ae	0.47876495
42	0x3e7bc2b4	0.24585992
43	0xbb907dba	-0.004409519
44	0x3e1c27fc	0.15249628
45	0xbddd903b	-0.108185254
46	0x3e93ce25	0.28868213
47	0xbdd39c9e	-0.10332607
48	0xbbd2249f	-0.006413057
49	0xbe47608d	-0.19470425
50	0xbd099eb8	-0.03359863
51	0x3ebd1569	0.36930397
52	0xbdba233f	-0.09088754
53	0xbd9e05c7	-0.07715946
54	0x3d925b6d	0.07146344
55	0xbdbd9d4f	-0.0925852
56	0xbe80e73a	-0.25176412
57	0xbd9aa299	-0.07550544
58	0xbd4c41ad	-0.04986732
59	0xbe468d5c	-0.19389862
60	0x3d855a08	0.06511313
61	0x3e808797	0.25103447
62	0x3da76971	0.08174408
63	0xbdab5fa9	-0.08367855

fc3.weight f4 [4, 64]
0	0x3d100227	0.035158303
1	0x3e9535a2	0.2914248
2	0x3ea84d2d	0.3287138
3	0x3ddc5882	0.10759069
4	0x3eadab30	0.33919668
5	0xbe2591e6	-0.16168937
6	0x3d9f0905	0.07765392
7	0x3ddb0754	0.10694757
8	0x3dd906b3	0.10596981
9	0x3e1c5b5a	0.15269223
10	0xbe33dd76	-0.1756495
11	0x3e225864	0.15854031
12	0x3e1c9e0e	0.15294668
13	0x3ec8525d	0.39125338
14	0xbd1c5030	-0.03816241
15	0x3d73e618	0.059545606
16	0x3e842bee	0.25814766
17	0x3e8aa73b	0.27080712
18	0x3be638f8	0.007025834
19	0x3e1dc429	0.1540686
20	0x3da77381	0.081763275
21	0x3e38ba43	0.18039803
22	0x3dd9e020	0.106384516
23	0xbcd5bf8f	-0.026092319
24	0x3e4a1614	0.19734985
25	0xbe521b2e	-0.2051818
26	0x3e6e94d6	0.23298964
27	0xbf1a730b	-0.6033179
28	0x3c2222e2	0.009896012
29	0x3e064875	0.13113578
30	0xbe422110	-0.18957925
31	0x3e3ac80e	0.18240377
32	0xbd2e1958	-0.04250464
33	0x3e805440	0.25064278
34	0x3df24ce7	0.11831074
35	0x3de50fa2	0.11184622
36	0x3e56a705	0.2096215
37	0xbe188380	-0.14893913
38	0x3f0f6da7	0.5602669
39	0x3e6eff31	0.23339535
40	0x3d8fed44	0.07027677
41	0x3e0e79ff	0.13913725
42	0x3e3b9330	0.18317866
43	0x3d8896af	0.066693656
44	0x3e3e9d31	0.18614651
45	0xbc18b887	-0.0093213385
46	0x3e4408f3	0.19144039
47	0xbc9b52ac	-0.01896032
48	0xbd6ba426	-0.05752959
49	0x3d9bf747	0.07615524
50	0x3c8d3377	0.017236454
51	0x3df392ed	0.11893258
52	0x3ec71fc8	0.38891435
53	0x3cda70ac	0.026665054
54	0x3e2d3da2	0.16918042
55	0xbe95cdb4	-0.29258502
56	0xbed4c558	-0.4155681
57	0xbd9ead81	-0.07747937
58	0x3e8333e6	0.25625533
59	0xbdf598e1	-0.1199205
60	0xbe87188c	-0.26385915
61	0x3e2d3e3d	0.16918273
62	0xbe29eb87	-0.16593753
63	0x3e868605	0.26274124
64	0x3df44d43	0.11928799
65	0x3e524b53	0.20536546
66	0x3ed80901	0.4219437
67	0x3dc29104	0.09500316
68	0x3ec06e00	0.37583923
69	0xbe26cc75	-0.16288932
70	0x3d3d684d	0.046242047
71	0x3e36a4d7	0.17836319
72	0x3d594e4d	0.05305319
73	0x3e249b45	0.16074856
74	0xbdc0c935	-0.09413377
75	0x3e08d133	0.13361053
76	0x3deb680e	0.11494456
77	0x3e872797	0.26397392
78	0xbba972b1	-0.005171143
79	0x3dd0b272	0.10190286
80	0x3e5da685	0.21645553
81	0x3ebcd0f5	0.36878172
82	0xbd839a48	-0.06425911
83	0x3de291cf	0.11062967
84	0x3e02c776	0.12771401
85	0x3e29ebc5	0.16593845
86	0xbe5474d3	-0.2074769
87	0x3d19ea27	0.03757682
88	0x3ed60f02	0.41808325
89	0xbd2614d3	-0.040547203
90	0x3f0837a5	0.53209907
91	0xb9e9eec6	-0.00044619123
92	0xbd90e407	-0.07074743
93	0x3e16372d	0.14669485
94	0xbe32902f	-0.17437814
95	0x3e3e682c	0.18594426
96	0xbe65a317	-0.22425495
97	0x3e979c8f	0.29611632
98	0x3dff6b19	0.12471599
99	0x3e5e2407	0.21693431
100	0x3db10a6d	0.08644567
101	0xbdbb9a50	-0.09160292
102	0x3eb4ae0f	0.35289046
103	0x3ec15bab	0.3776525
104	0x3e1678c0	0.146945
105	0x3e28fc30	0.16502452
106	0x3e2ae6c4	0.16689593
107	0x3ccdba84	0.025113352
108	0x3e257ceb	0.16160934
109	0xbe442270	-0.19153762
110	0x3e19e155	0.15027364
111	0xbc116b41	-0.008875669
112	0x3c23800a	0.009979257
113	0x3e1cea72	0.15323809
114	0x3e04d3b9	0.12971391
115	0x3e138176	0.14404854
116	0xbe243b5e	-0.16038272
117	0x3deef8bc	0.11668536
118	0x3e4e8116	0.2016643
119	0x3d1288ce	0.035775
120	0xbe979bcc	-0.2961105
121	0xbe601b1a	-0.21885338
122	0x3e6746a3	0.2258554
123	0xbe8083ec	-0.25100648
124	0x3d263551	0.04057819
125	0x3dbbfe26	0.09179334
126	0xbe275075	-0.16339286
127	0x3ee35ec6	0.44408244
128	0xbf0d11b6	-0.5510515
129	0x3d1d2ed9	0.038374756
130	0x3f2168db	0.6305062
131	0xbe9d5c95	-0.30734697
132	0x3ed87fff	0.42285153
133	0xbe757cef	-0.2397344
134	0x3dd3a47c	0.10334107
135	0x3e3228fa	0.17398444
136	0x3e29e587	0.16591464
137	0x3e14b9ff	0.14524077
138	0xbe0e617b	-0.13904373
139	0x3ecc25f1	0.39872697
140	0x3e59bada	0.21262684
141	0x3cae4731	0.021274181
142	0xbd985c66	-0.074394986
143	0x3dca94a6	0.09891634
144	0x3e6ecbf8	0.23319995
145	0x3d094efb	0.033522587
146	0xbd94dbc4	-0.072684795
147	0x3c552b6e	0.013010843
148	0x3d90a335	0.07062379
149	0x3e3ca624	0.18422753
150	0xbecd9457	-0.40152237
151	0x3e8492cc	0.25893247
152	0x3f1b29ee	0.60610855
153	0xbe3fdaff	-0.18735884
154	0xbdccca55	-0.09999529
155	0xbd90e0fd	-0.07074163
156	0x3dba8355	0.09107081
157	0x3dbe6c55	0.092980064
158	0xbd3738c3	-0.044731867
159	0x3cc6f07e	0.024284597
160	0xbec5d0ca	-0.38635856
161	0x3ea6333a	0.32460958
162	0x3e34fcad	0.17674513
163	0x3f05ff04	0.5234225
164	0x3eea6eb0	0.45787573
165	0xbe66a351	-0.22523238
166	0x3e92e953	0.28693637
167	0xbdcd62cf	-0.10028612
168	0xbe06ecfb	-0.13176338
169	0x3e3af471	0.1825731
170	0x3e87f982	0.26557547
171	0x3dc5db45	0.09660963
172	0x3d1936ba	0.037405707
173	0xbd8e9589	-0.06962115
174	0x3e204566	0.15651473
175	0x3e91f244	0.28505147
176	0x3e0c9145	0.13727291
177	0xbdb75338	-0.089514196
178	0x3e0e71ac	0.1391055
179	0x3e89c87a	0.26910764
180	0xbe6fdcce	-0.23424074
181	0x3ea40aaa	0.32039386
182	0x3e50230a	0.20325866
183	0x3ca5f42a	0.020258028
184	0xbe59a31b	-0.21253626
185	0xbd22a975	-0.039712388
186	0xbf06a53c	-0.5259588
187	0xbe103ec6	-0.14086446
188	0xbf03f80e	-0.51550376
189	0x3e113900	0.141819
190	0xbecffd74	-0.40623057
191	0xbe9cad1e	-0.30600828
192	0x3ed43678	0.41447806
193	0x3e013dd0	0.12621236
194	0x3db1ff4b	0.086912714
195	0xbea9d635	-0.3317124
196	0x3ea02600	0.31278992
197	0x3d7f0846	0.06226375
198	0xbd891edf	-0.06695341
199	0x3df997aa	0.12187131
200	0x3e40f41e	0.18843123
201	0x3e59f4ab	0.2128474
202	0x3d0b2167	0.0339674
203	0x3ebda5cb	0.37040552
204	0x3e71ddb1	0.23619725
205	0x3e954060	0.29150677
206	0x3d35312e	0.044236355
207	0xbe7ae34f	-0.24500774
208	0x3ed191c9	0.40931538
209	0x3e0b0a3e	0.13578126
210	0x3d81a40a	0.06330116
211	0x3e821774	0.25408518
212	0x3e14d9aa	0.14536157
213	0x3e4fabb5	0.20280345
214	0x3df50ca3	0.11965301
215	0x3e3be7f8	0.18350208
216	0xbdfb1902	-0.12260629
217	0xbd0d907c	-0.03456162
218	0x3f2aa1c7	0.666531
219	0xbdb1fa33	-0.086903
220	0x3da86156	0.0822169
221	0x3b71bfe8	0.0036888067
222	0xbe372558	-0.1788534
223	0x3d1376f7	0.036002126
224	0xbde8389f	-0.113389246
225	0x3e9c7de1	0.30564788
226	0xbdb886b3	-0.09010067
227	0xbe26b0df	-0.16278408
228	0x3e033565	0.12813337
229	0xbe2ec8f1	-0.1706884
230	0x3dd41115	0.10354821
231	0x3e2f48c2	0.17117599
232	0xbea657b8	-0.324888
233	0x3e5f0399	0.21778716
234	0x3e422edc	0.18963188
235	0xbe24e010	-0.16101098
236	0x3e058302	0.13038257
237	0xbe3aaa29	-0.18228973
238	0x3de41ded	0.111385204
239	0xbe10dc44	-0.14146525
240	0x3e0c68a8	0.13711798
241	0xbf11d68f	-0.56968015
242	0x3e638ed4	0.22222453
243	0x3e5eb2b1	0.21747853
244	0xbea7023d	-0.32618895
245	0xbd43e603	-0.04782678
246	0x3ea41c6a	0.32052928
247	0x3de40b84	0.11135009
248	0xbe6b4570	-0.22975707
249	0xbed4b135	-0.41541448
250	0x3e0ef767	0.13961564
251	0xbf0553fa	-0.52081263
252	0xbf066867	-0.52503055
253	0x3dc9753c	0.09836814
254	0xbef2a6e9	-0.47392967
255	0x3e63e894	0.2225669

fc3.bias f4 [4]
0	0x3e8b9151	0.27259305
1	0x3e8cd7ed	0.27508488
2	0x3e40e585	0.18837555
3	0x3e2aa867	0.16665803
